open_ai/models/Q-MountainCar_model.npy (npy, 4928 bytes, 1 tensors)

array f4 [20, 20, 3]
0.0 0.0 0.0 0.0 0.0 0.0 0.0 0.0
0.0 0.0 0.0 0.0 0.0 0.0 0.0 0.0
0.0 0.0 0.0 0.0 0.0 0.0 0.0 0.0
0.0 0.0 0.0 0.0 0.0 0.0 -37.57264 -37.60445
-36.484375 0.0 0.0 0.0 0.0 0.0 0.0 0.0
0.0 0.0 0.0 0.0 0.0 0.0 0.0 0.0
0.0 0.0 0.0 0.0 0.0 0.0 0.0 0.0
0.0 0.0 0.0 0.0 0.0 0.0 0.0 0.0
0.0 0.0 -8.601629 -8.622683 -8.445008 -37.599987 -38.051598 -38.056156
-37.554714 -38.701973 -38.71807 -38.155594 -39.274105 -39.32172 -39.112595 -39.644234
-39.674747 -40.472736 -40.3489 -38.51296 -39.98818 -39.835957 -38.24038 -38.84799
-38.890003 -37.257572 -37.23764 -37.19974 -35.93086 -35.998882 -35.945118 -35.372166
-34.867325 -34.503944 -34.175774 -33.481586 -33.5615 -32.965286 0.0 0.0
0.0 0.0 0.0 0.0 0.0 0.0 0.0 0.0
0.0 0.0 0.0 0.0 0.0 0.0 0.0 0.0
0.0 0.0 0.0 0.0 0.0 0.0 -37.035686 -37.03232
-37.04172 -39.909294 -39.814835 -38.56352 -40.631226 -40.669968 -38.854492 -40.111595
-41.113167 -41.087345 -41.025436 -42.191395 -42.13254 -42.231483 -42.235584 -42.086685
-42.43177 -42.42057 -42.399784 -41.593723 -41.595818 -41.593967 -41.143036 -41.1544
-41.167164 -39.695442 -39.668304 -39.70445 -36.495106 -36.52197 -36.465343 -33.83455
-33.816418 -32.801884 -31.804148 -31.727242 -31.719208 -30.511808 -30.515491 -30.512545
0.0 0.0 0.0 0.0 0.0 0.0 0.0 0.0
0.0 0.0 0.0 0.0 0.0 0.0 0.0 -2.8351102
-2.674129 -1.9068056 -39.619656 -39.43277 -39.66191 -39.34028 -41.007034 -41.057697
-41.051647 -42.370808 -42.330116 -43.72827 -42.71321 -43.786304 -44.441246 -43.9806
-44.36435 -47.06486 -47.06436 -47.064117 -47.214497 -46.632782 -46.620335 -48.192024
-48.200867 -45.557766 -47.9383 -47.918953 -44.87582 -46.257954 -43.538033 -46.166405
-42.664326 -42.593 -41.97023 -40.462696 -40.46662 -40.463467 -33.482136 -33.56532
-33.56017 -30.47048 -30.451239 -30.45463 -28.592012 -28.58193 -28.586224 0.0
0.0 0.0 0.0 0.0 0.0 0.0 0.0 0.0
0.0 0.0 0.0 -10.9184675 -10.989415 -11.155896 -40.40509 -40.63847
-40.63683 -40.874104 -42.81461 -42.75094 -43.84712 -44.19643 -44.17838 -43.982395
00000000: 0000 0000 0000 0000 0000 0000 0000 0000
00000010: 0000 0000 0000 0000 0000 0000 0000 0000
00000020: 0000 0000 0000 0000 0000 0000 0000 0000
00000030: 0000 0000 0000 0000 0000 0000 0000 0000
00000040: 0000 0000 0000 0000 0000 0000 0000 0000
00000050: 0000 0000 0000 0000 0000 0000 0000 0000
00000060: 0000 0000 0000 0000 0000 0000 0000 0000
00000070: 0000 0000 0000 0000 624a 16c2 f56a 16c2
00000080: 00f0 11c2 0000 0000 0000 0000 0000 0000
00000090: 0000 0000 0000 0000 0000 0000 0000 0000
000000a0: 0000 0000 0000 0000 0000 0000 0000 0000
000000b0: 0000 0000 0000 0000 0000 0000 0000 0000
000000c0: 0000 0000 0000 0000 0000 0000 0000 0000
000000d0: 0000 0000 0000 0000 0000 0000 0000 0000
000000e0: 0000 0000 0000 0000 0000 0000 0000 0000
000000f0: 0000 0000 0000 0000 0000 0000 0000 0000
00000100: 0000 0000 0000 0000 46a0 09c1 82f6 09c1
00000110: c11e 07c1 6366 16c2 d634 18c2 8139 18c2
00000120: 0738 16c2 d2ce 1ac2 4edf 1ac2 549f 18c2
00000130: af18 1dc2 7149 1dc2 4c73 1cc2 b293 1ec2
00000140: f1b2 1ec2 15e4 21c2 4665 21c2 450d 1ac2
00000150: e5f3 1fc2 0558 1fc2 26f6 18c2 5764 1bc2
00000160: 5d8f 1bc2 c107 15c2 58f3 14c2 89cc 14c2
00000170: 33b9 0fc2 dbfe 0fc2 cdc7 0fc2 197d 0dc2
00000180: 2478 0bc2 0a04 0ac2 feb3 08c2 25ed 05c2
00000190: fa3e 06c2 74dc 03c2 0000 0000 0000 0000
000001a0: 0000 0000 0000 0000 0000 0000 0000 0000
000001b0: 0000 0000 0000 0000 0000 0000 0000 0000
000001c0: 0000 0000 0000 0000 0000 0000 0000 0000
000001d0: 0000 0000 0000 0000 0000 0000 0000 0000
000001e0: 0000 0000 0000 0000 0000 0000 0000 0000
000001f0: 0000 0000 0000 0000 8b24 14c2 1821 14c2
00000200: b92a 14c2 1ea3 1fc2 6442 1fc2 0b41 1ac2
00000210: 6086 22c2 0cae 22c2 006b 1bc2 4672 20c2
00000220: e273 24c2 7159 24c2 0c1a 24c2 fdc3 28c2
00000230: b987 28c2 0aed 28c2 3df1 28c2 c458 28c2
00000240: 22ba 29c2 aaae 29c2 6199 29c2 f95f 26c2
00000250: 1e62 26c2 3960 26c2 7892 24c2 1b9e 24c2
00000260: 2dab 24c2 22c8 1ec2 58ac 1ec2 5bd1 1ec2
00000270: fdfa 11c2 7f16 12c2 83dc 11c2 9456 07c2
00000280: 0344 07c2 2135 03c2 e56e fec1 64d1 fdc1
00000290: f0c0 fdc1 2f18 f4c1 ba1f f4c1 b119 f4c1
000002a0: 0000 0000 0000 0000 0000 0000 0000 0000
000002b0: 0000 0000 0000 0000 0000 0000 0000 0000
000002c0: 0000 0000 0000 0000 0000 0000 0000 0000
000002d0: 0000 0000 0000 0000 0000 0000 7272 35c0
000002e0: ee24 2bc0 3512 f4bf 877a 1ec2 28bb 1dc2
000002f0: cca5 1ec2 725c 1dc2 3407 24c2 153b 24c2
00000300: e334 24c2 b57b 29c2 0a52 29c2 c0e9 2ec2
00000310: 54da 2ac2 2d25 2fc2 d6c3 31c2 22ec 2fc2
00000320: 1875 31c2 6b42 3cc2 e841 3cc2 a841 3cc2
00000330: a5db 3cc2 f887 3ac2 397b 3ac2 a2c4 40c2
00000340: b0cd 40c2 273b 36c2 d2c0 3fc2 02ad 3fc2
00000350: d780 33c2 2508 39c2 f226 2ec2 66aa 38c2
00000360: 45a8 2ac2 3b5f 2ac2 84e1 27c2 cdd9 21c2
00000370: d2dd 21c2 97da 21c2 b5ed 05c2 e342 06c2
00000380: 9d3d 06c2 8bc3 f3c1 239c f3c1 15a3 f3c1
00000390: 71bc e4c1 cba7 e4c1 96b0 e4c1 0000 0000
000003a0: 0000 0000 0000 0000 0000 0000 0000 0000
000003b0: 0000 0000 0000 0000 0000 0000 0000 0000
000003c0: 0000 0000 0000 0000 0000 0000 0bb2 2ec1
000003d0: a5d4 2fc1 8d7e 32c1 d09e 21c2 cb8d 22c2
000003e0: 1d8c 22c2 157f 23c2 2942 2bc2 f600 2bc2
000003f0: 7363 2fc2 25c9 30c2 a9b6 30c2 f9ed 2fc2
